…
INFO - 05/16/21 22:08:24 - 0:00:04 - Monolingual data   - valid -          cpp:      1000
INFO - 05/16/21 22:08:24 - 0:00:04 - Monolingual data   -  test -          cpp:      1000
INFO - 05/16/21 22:08:24 - 0:00:04 - Monolingual data   - valid -         llvm:      1000
INFO - 05/16/21 22:08:24 - 0:00:04 - Monolingual data   -  test -         llvm:      1000

INFO - 05/16/21 22:08:25 - 0:00:05 - Reloading model from /home/carl/TransCoder/output/mlm_cpp_llvm/bp5kf6zh4p/best-valid_mlm_ppl.pth ...
INFO - 05/16/21 22:08:27 - 0:00:07 - Model: TransformerModel(
                                       (position_embeddings): Embedding(1024, 1024)
                                       (lang_embeddings): Embedding(2, 1024)
                                       (embeddings): Embedding(48331, 1024, padding_idx=2)
                                       (layer_norm_emb): LayerNorm((1024,), eps=1e-12, elementwise_affine=True)
                                       (attentions): ModuleList(
                                         (0): MultiHeadAttention(
                                           (q_lin): Linear(in_features=1024, out_features=1024, bias=True)
                                           (k_lin): Linear(in_features=1024, out_features=1024, bias=True)
                                           (v_lin): Linear(in_features=1024, out_features=1024, bias=True)
                                           (out_lin): Linear(in_features=1024, out_features=1024, bias=True)
                                         )
                                         (1): MultiHeadAttention(
                                           (q_lin): Linear(in_features=1024, out_features=1024, bias=True)
                                           (k_lin): Linear(in_features=1024, out_features=1024, bias=True)
                                           (v_lin): Linear(in_features=1024, out_features=1024, bias=True)
                                           (out_lin): Linear(in_features=1024, out_features=1024, bias=True)
                                         )
                                         (2): MultiHeadAttention(
                                           (q_lin): Linear(in_features=1024, out_features=1024, bias=True)
                                           (k_lin): Linear(in_features=1024, out_features=1024, bias=True)
                                           (v_lin): Linear(in_features=1024, out_features=1024, bias=True)
                                           (out_lin): Linear(in_features=1024, out_features=1024, bias=True)
                                         )
                                         (3): MultiHeadAttention(
                                           (q_lin): Linear(in_features=1024, out_features=1024, bias=True)
                                           (k_lin): Linear(in_features=1024, out_features=1024, bias=True)
                                           (v_lin): Linear(in_features=1024, out_features=1024, bias=True)
                                           (out_lin): Linear(in_features=1024, out_features=1024, bias=True)
                                         )
                                         (4): MultiHeadAttention(
                                           (q_lin): Linear(in_features=1024, out_features=1024, bias=True)
                                           (k_lin): Linear(in_features=1024, out_features=1024, bias=True)
                                           (v_lin): Linear(in_features=1024, out_features=1024, bias=True)
                                           (out_lin): Linear(in_features=1024, out_features=1024, bias=True)
                                         )
                                         (5): MultiHeadAttention(
                                           (q_lin): Linear(in_features=1024, out_features=1024, bias=True)
                                           (k_lin): Linear(in_features=1024, out_features=1024, bias=True)
                                           (v_lin): Linear(in_features=1024, out_features=1024, bias=True)
                                           (out_lin): Linear(in_features=1024, out_features=1024, bias=True)
                                         )
                                       )
                                       (layer_norm1): ModuleList(
                                         (0): LayerNorm((1024,), eps=1e-12, elementwise_affine=True)
                                         (1): LayerNorm((1024,), eps=1e-12, elementwise_affine=True)
                                         (2): LayerNorm((1024,), eps=1e-12, elementwise_affine=True)
                                         (3): LayerNorm((1024,), eps=1e-12, elementwise_affine=True)
                                         (4): LayerNorm((1024,), eps=1e-12, elementwise_affine=True)
                                         (5): LayerNorm((1024,), eps=1e-12, elementwise_affine=True)
                                       )
                                       (ffns): ModuleList(
                                         (0): TransformerFFN(
                                           (lin1): Linear(in_features=1024, out_features=4096, bias=True)
                                           (lin2): Linear(in_features=4096, out_features=1024, bias=True)
                                         )
                                         (1): TransformerFFN(
                                           (lin1): Linear(in_features=1024, out_features=4096, bias=True)
                                           (lin2): Linear(in_features=4096, out_features=1024, bias=True)
                                         )
                                         (2): TransformerFFN(
                                           (lin1): Linear(in_features=1024, out_features=4096, bias=True)
                                           (lin2): Linear(in_features=4096, out_features=1024, bias=True)
                                         )
                                         (3): TransformerFFN(
                                           (lin1): Linear(in_features=1024, out_features=4096, bias=True)
                                           (lin2): Linear(in_features=4096, out_features=1024, bias=True)
                                         )
                                         (4): TransformerFFN(
                                           (lin1): Linear(in_features=1024, out_features=4096, bias=True)
                                           (lin2): Linear(in_features=4096, out_features=1024, bias=True)
                                         )
                                         (5): TransformerFFN(
                                           (lin1): Linear(in_features=1024, out_features=4096, bias=True)
                                           (lin2): Linear(in_features=4096, out_features=1024, bias=True)
                                         )
                                       )
                                       (layer_norm2): ModuleList(
                                         (0): LayerNorm((1024,), eps=1e-12, elementwise_affine=True)
                                         (1): LayerNorm((1024,), eps=1e-12, elementwise_affine=True)
                                         (2): LayerNorm((1024,), eps=1e-12, elementwise_affine=True)
                                         (3): LayerNorm((1024,), eps=1e-12, elementwise_affine=True)
                                         (4): LayerNorm((1024,), eps=1e-12, elementwise_affine=True)
                                         (5): LayerNorm((1024,), eps=1e-12, elementwise_affine=True)
                                       )
                                       (pred_layer): PredLayer(
                                         (proj): Linear(in_features=1024, out_features=48331, bias=True)
                                       )
                                     )
INFO - 05/16/21 22:08:27 - 0:00:07 - Number of parameters (model): 126169291
INFO - 05/16/21 22:08:27 - 0:00:07 - Found 102 parameters in model.
INFO - 05/16/21 22:08:27 - 0:00:07 - Optimizers: model
Namespace(accumulate_gradients=1, ae_steps='', amp=2, attention_dropout
…
